work_dir/SAMccs/ISIC/lora_best_parameters.pth (torch, 604458 bytes, 48 tensors)

A_weight_0 f4 [4, 768]
000000 01 29 90 3c 5c e2 1a bd 42 55 1b bd 44 03 b8 bc
       0.017597677 -0.03781353 -0.037923105 -0.022462495
000010 b0 c4 23 bd d4 14 03 3d 29 23 c6 bd 4c 44 9d 3c
       -0.039982498 0.032002285 -0.09674675 0.019197606
000020 a5 d9 21 bd 90 f2 67 bd 6c 35 e4 3c 35 58 3a bc
       -0.039514203 -0.05662781 0.027857505 -0.011373569
000030 f1 be 7c bd 9b 88 49 ba 85 d7 7d 3d b1 ba a0 3d
       -0.061705533 -0.00076878973 0.061973114 0.078481086
000040 32 13 5c bd fb 4f 2d 3d 26 87 d0 3d 9f d7 6d 3d
       -0.053729244 0.042312603 0.101820275 0.05806696
000050 59 05 ac 3d d8 9e 0a 3d 75 04 98 3d 4d fa 8a 3d
       0.083994575 0.03384289 0.07422725 0.06786022
000060 d4 c3 74 3d c7 1e b3 3c b7 89 65 3d 60 ad 92 3d
       0.05975707 0.021865262 0.05603954 0.07161975
000070 d0 be 27 3c e5 b4 4e 3d a9 f2 c0 3c 04 e8 21 3d
       0.010238364 0.050465483 0.02355321 0.039527908
000080 f3 b0 6d 3d b0 d3 fc 3c 96 0d a8 3d 49 33 65 3d
       0.05803008 0.03086266 0.08205716 0.055957112
000090 f4 5b 54 bc 26 3c 0f bc e4 0e ee 3c 97 84 3d 3c
       -0.012961376 -0.008742368 0.029059835 0.011567256
0000a0 82 40 43 bc 6d 8b 04 3d d1 67 97 3c 20 33 82 bc
       -0.011917235 0.03235953 0.01848212 -0.015893519
0000b0 69 5b 8a bd 39 e4 bb 3c a8 cf 93 3c 2a 5f f9 bc
       -0.06755716 0.022935973 0.018043354 -0.030440886
0000c0 dc 0d 02 bd 36 d9 e3 3c fe 7c 02 bd 64 1a 06 bd
       -0.0317515 0.027813535 -0.031857483 -0.03274001
0000d0 58 4a f3 3c 43 e5 45 bd 2d af 6a 3d 6d a2 a2 3c
       0.029698536 -0.048314344 0.057295967 0.019852841
0000e0 85 38 23 bd 4a 9f 94 bd 15 92 8a bd 05 61 9e 3c
       -0.039848823 -0.072569445 -0.06766144 0.019333372
0000f0 49 f3 54 3d 9e 51 76 bc 2f 4d bb bc f9 d7 09 3d
       0.051989827 -0.0150341075 -0.022863952 0.033653233
000100 c7 2d 3d bd 64 79 fe 3b 4f e9 dd 3c d5 b4 98 bc
       -0.046186235 0.0077659357 0.02708879 -0.018640915
000110 96 01 c0 bc 91 bd d6 3b e6 89 1a 3c 89 e0 40 bd
       -0.023438256 0.00655336 0.009432292 -0.047089133
000120 17 e7 5f 3c ce 48 09 3d 1c 97 92 3d 8d fa 1d 3d
       0.013665936 0.033516698 0.07157728 0.038569022
000130 09 a5 6f 3c 35 14 a2 3b fd f5 63 3c 00 c0 e2 3c
       0.01462675 0.0049462565 0.013913629 0.027679443
000140 b3 ab ce bd 05 ce 0b bb 83 ca 62 3a 76 58 ef bb
       -0.10091343 -0.0021332514 0.00086513924 -0.0073042465
000150 c6 0c d4 bc bf a6 72 bd 66 1d 6b bc 62 d0 de 3c
       -0.025884997 -0.059241053 -0.014350271 0.027198974
000160 bc ab 31 3d db da b0 bd 6b 8b 9f bc b2 6f 45 bc
       0.04337667 -0.08635493 -0.01947566 -0.012050556
000170 fb 6f 86 3d 4c dd 1a 3d 0a d9 f9 bc 81 81 56 3d
       0.06564327 0.0378087 -0.030499 0.0523696
000180 a2 81 b9 3b 85 8a 41 3c 42 86 8e 3d dd 6a 90 bd
       0.0056612054 0.011812811 0.069592014 -0.070516326
000190 58 71 a7 3c c3 0b 66 3d 2c e2 97 bb 8a cd be bc
       0.020439789 0.05616356 -0.004635116 -0.023291368
0001a0 12 fe b2 3c 91 6f 7e 3b 5b b4 34 bd aa df 03 3c
       0.021849666 0.0038823823 -0.044117313 0.008048931
0001b0 c9 67 5a 3d 32 48 6b 3d fe 4e 7c 3c 12 4d b5 3c
       0.053321633 0.057441898 0.015399693 0.022131477
0001c0 3d d1 7f 3d 41 82 5a 3d d8 b1 a4 bc 4e ba df 3c
       0.062455405 0.053346876 -0.020104334 0.027310517
0001d0 5d c0 89 ba e5 0a 29 bd 54 8f d2 3c 33 82 74 3d
       -0.0010509599 -0.041270155 0.02570311 0.05969448
0001e0 2a 11 fb 3c 87 d8 e5 3c bf 41 75 3c 46 14 78 bd
       0.030647833 0.02805735 0.014969288 -0.06056621
0001f0 ae b2 36 bd 5c 8d a7 3b d8 99 b2 3b 1f 5a 0e bd
       -0.044603996 0.005113287 0.0054504685 -0.034753915
000200 97 25 78 3d b4 3b 31 3d 52 8d 8e 3d 3f 51 a0 3c
       0.060582723 0.043269828 0.069605485 0.019569991
000210 e7 ee 71 bd 61 3f d8 bc 78 61 97 3c 1d fa 45 bb
       -0.059065726 -0.026397409 0.018479094 -0.0030208894
000220 59 d8 a2 3d 75 41 19 3d 43 d6 51 bd 37 37 8b 3d
       0.07951421 0.03741594 -0.051229727 0.06797641
000230 3e 7a ba 3c f2 ed 1c 3d 1c 24 86 3d f1 16 df bd
       0.022763368 0.03831286 0.06549856 -0.108930476
000240 85 b9 f1 bc 9a 0d 27 3d 0c 57 59 bd 68 f1 1b 3c
       -0.029507408 0.040784456 -0.05306153 0.009518005
000250 77 06 c4 bc 68 4b ae bc 33 ad d5 3c 64 ad 49 3d
       -0.023928864 -0.02127619 0.026083564 0.049237624
000260 f5 2d 9c 3d b4 5e 7b bd 7f b4 07 3d bf ad b7 bc
       0.07625953 -0.061369613 0.03313112 -0.022421716
000270 c0 c9 e9 3c de 4a f0 bc a9 19 82 bd 54 b6 1e 3d
       0.028538585 -0.029332574 -0.063525505 0.0387481
000280 36 b8 98 3c ec 36 21 bc c6 b0 1e 3d d8 39 e8 3d
       0.018642526 -0.009839755 0.038742803 0.11339158
000290 a3 4c 69 3d 6c 5a 58 3b fe fe 8f 3d 10 c8 54 3c
       0.056957852 0.003301288 0.07031058 0.012987152
0002a0 c0 82 89 bd cd ce c5 bc 3e 5b 01 bd 16 60 70 bc
       -0.06714392 -0.024146462 -0.031581156 -0.014671346
0002b0 8b fb 9f 3c 9a cc 82 bd e6 51 b9 3d d1 02 40 bd
       0.019529125 -0.06386681 0.09048824 -0.046877686
0002c0 1f 4b b9 bc 03 c9 83 bc b5 ce c0 bc 46 0a 7c 3d
       -0.022618828 -0.01608706 -0.023536066 0.061533235
0002d0 26 c4 3a 3b 51 dd cd bd 41 73 6d bd fa 26 f9 3c
       0.0028498261 -0.100519784 -0.057971243 0.030414093
0002e0 38 4a 7c bd 51 c5 4d bd db 43 4a 3d 40 c8 d0 bc
       -0.061594218 -0.050237004 0.04938112 -0.025486112
0002f0 5a 09 03 3d 6f e8 22 bd d6 f8 2b bd 37 76 51 bd
       0.03199134 -0.039772447 -0.041985355 -0.05113813
000300 87 2c 1d bd 20 3d 10 3b df 4c 6d 3d 24 58 49 3d
       -0.038372543 0.002200909 0.057934638 0.049156323
000310 1f ab bf 3c 19 0e 6e 3c 8f 96 4e bc da f6 44 bd
       0.023397027 0.014529728 -0.012609138 -0.04808698
000320 e4 de 17 3d 2f 20 b1 bc 0a 9f 45 bd 6e 30 e7 3d
       0.0370778 -0.021621792 -0.048247375 0.11288534
000330 cf ba a4 3d 47 3c 92 3d 6b ac 3d bd 05 6a 8d bd
       0.080434434 0.07140403 -0.04630701 -0.06904987
000340 61 95 a0 3d 8b 08 eb bc 0e bb 23 bc b6 4c 67 3d
       0.07840992 -0.028690597 -0.009993328 0.05646964
000350 d8 c7 4b bc a7 f6 ba bb c2 03 0e 3d e5 fb 45 bc
       -0.012437783 -0.005705673 0.034671552 -0.012083982
000360 6d 31 c2 3c c5 cf 07 3b 4a ab 55 3d bf 8e 18 bd
       0.023705209 0.0020723206 0.052165307 -0.03724551
000370 61 f6 1f bb a3 3c b9 3d c3 c2 a6 3c 3c 53 76 bc
       -0.0024408328 0.09044769 0.020356541 -0.015034493
000380 b3 bc b7 3c 51 df 2c 3d 8c b8 2f bd 9d 0d d4 bb
       0.022428846 0.04220516 -0.042900607 -0.0064713494
000390 04 e0 95 bb 09 50 83 3d 76 31 3a bd e8 26 09 3d
       -0.004573824 0.0641175 -0.045457326 0.03348437
0003a0 08 92 57 bb 1a ea 03 3d fe 6c c9 bc 52 e1 12 bd
       -0.0032893438 0.03220568 -0.024588104 -0.035859413
0003b0 45 2d 84 bd fb 9c 8d 3d df 41 d6 3c 90 b2 bd 3c
       -0.06453947 0.06914707 0.026154457 0.023156434
0003c0 fc bf ba 3d 4d fe 3a 3d a6 80 53 3d cd 98 1c 3d
       0.09118649 0.045652676 0.05163636 0.03823166
0003d0 22 c5 1e bc 8b 56 4f 3c 2d 15 87 3d f0 d9 2a bd
       -0.009690555 0.012654911 0.06595836 -0.041711748
0003e0 3b b2 5c 3d 15 58 30 3d 87 51 25 3d d1 1e 14 bb
       0.05388091 0.04305275 0.040360954 -0.0022601376
0003f0 c6 f3 27 3d 03 55 cc 3d 7c 08 8f bc c7 36 21 bd
       0.041003965 0.09977152 -0.0174601 -0.03935888

A_weight_1 f4 [4, 768]
000000 e3 3f a4 bb ad a0 a6 bc 49 8d 25 bc d9 87 ab bc
       -0.0050124987 -0.020340288 -0.010104486 -0.0209388
000010 c0 da 8c bd ca b9 4d 3d a0 c0 4f bd 3b ce 0f bd
       -0.06877661 0.05022601 -0.05072081 -0.035108786
000020 8d 77 1b bd 90 2e e6 bc f8 51 94 3d 7b 9b 46 3d
       -0.03795581 -0.028098375 0.07242197 0.04848812
000030 ac 8a 15 bc 15 19 4e bd 09 2e 07 3d 5a 41 a1 bb
       -0.0091273 -0.05031689 0.033002887 -0.0049211206
000040 2b 87 f5 ba 8a 15 10 bc fc c8 ee 3b ff 93 c0 bc
       -0.00187323 -0.008794198 0.007287143 -0.02350807
000050 c2 6f 64 3d 8b 82 37 3b 93 bc 48 3d 99 13 1b 3d
       0.055770643 0.0028001394 0.049007963 0.037860487
000060 3d 4a 4d 3d 8f e7 d3 3b fe 5a 08 3c 61 f4 d8 3c
       0.050119627 0.006466813 0.0083224755 0.026483716
000070 87 16 45 3d 7e 96 21 3d b6 74 02 3d 0c d5 01 3d
       0.048117187 0.03945016 0.031849585 0.031697318
000080 47 39 96 bc f1 64 6b bc 0d 47 ad 3c c5 fb bf 3c
       -0.018337859 -0.014367328 0.021152044 0.023435483
000090 b4 a5 28 bc d5 3d e3 3b e2 72 a7 3c 5c 65 2a 3d
       -0.010293413 0.006934861 0.020440523 0.04160057
0000a0 45 f2 0f 3c 4c c3 c4 bc f1 90 26 3d 24 c7 fc 3c
       0.008785789 -0.024018906 0.04066557 0.030856676
0000b0 4c 19 18 bc a3 f2 04 3c ce 44 22 bc 0e 1f 93 bc
       -0.009283375 0.00811449 -0.0099041 -0.017959144
0000c0 65 b3 51 bc ad 6f 7c bc a0 2b 1b 3d 2f 1d d1 bc
       -0.012799119 -0.015407485 0.0378834 -0.025526611
0000d0 51 38 4a bc ec 28 24 3d b7 a5 73 bc 11 f0 23 3d
       -0.012342528 0.04007809 -0.0148710525 0.040023867
0000e0 07 13 96 bc 51 90 03 bd 9a 4d 1c 3d 1c 8e 8d 3b
       -0.01831962 -0.032120053 0.038159944 0.0043199193
0000f0 86 9a b0 3b 56 66 89 bc 53 ba 9d bc 79 5d 44 3d
       0.0053895144 -0.01677243 -0.019253885 0.047940705
000100 a8 f6 c7 bc 82 44 74 bb 04 b7 3f 3d ff 31 13 3d
       -0.024409607 -0.003727228 0.046805397 0.035936352
000110 ae fb cd 3c b3 55 1e 3b 04 97 a3 3b 96 c7 aa 3c
       0.025144424 0.0024159967 0.0049923677 0.020847123
000120 ff c9 61 bb da d8 9a 3c 6c a3 6c bc 70 32 b1 b9
       -0.0034452674 0.018902231 -0.01444326 -0.0003379765
000130 54 67 01 bd 9d a6 18 3c 77 04 a6 bc cf dd 9c 3c
       -0.031592682 0.009317067 -0.0202658 0.019148735
000140 38 d2 f6 3c 80 98 93 bc 6d 4e 40 bc 2e cf df ba
       0.030129537 -0.018017054 -0.011737448 -0.0017075294
000150 76 55 3f 3b fa 72 fa bc 0d d5 a5 bc 44 95 8d 3b
       0.0029195226 -0.030572403 -0.020243192 0.0043207724
000160 ed 04 78 3c 9d 91 e1 3c 8b bd f6 3c 81 ad fc 3c
       0.015137893 0.027535254 0.030119678 0.030844452
000170 a4 dc b1 bb 4b 10 2f 3d f3 36 15 3b da fa 17 3d
       -0.0054279137 0.042740148 0.0022768348 0.037104465
000180 17 ac 22 bb b3 5a 92 3c 51 6b 8b bc 03 ac 32 3d
       -0.0024821812 0.017865514 -0.017018946 0.043621074
000190 62 e2 70 3b fd 5d 9c bc 13 d1 38 bc a5 62 ba bc
       0.0036756028 -0.019087786 -0.011280316 -0.022752116
0001a0 a0 57 84 3b 11 a3 84 3c 2b 16 0c bd e1 d8 d7 3c
       0.004038766 0.016191037 -0.03420083 0.026348533
0001b0 3a 89 37 bc 4e 2a 01 bc 70 8f c4 3c 76 a7 79 3d
       -0.011202151 -0.007883621 0.023994178 0.06095072
0001c0 e9 93 79 bc e8 46 8e bb a4 b0 1f 3d f8 00 09 3b
       -0.015233018 -0.004341949 0.038986817 0.0020905118
0001d0 1d dd 55 3c a4 3c 7b bc bc c9 ca 3c 59 6d 7e 3d
       0.013053206 -0.015334282 0.024754398 0.062116
0001e0 f4 9c ba 3b b3 4e 2c 3d 7b 14 f2 bc 3d 76 26 bd
       0.00569498 0.04206724 -0.029550781 -0.040640105
0001f0 b8 8d 23 bb 06 ce c8 3c ef c3 4b bd c0 ef b4 3b
       -0.0024956297 0.024512302 -0.049747404 0.0055217445
000200 52 e2 82 3d 83 02 86 bc 3b 96 a4 ba 81 2d 05 3d
       0.063908234 -0.01635862 -0.0012556979 0.0325141
000210 71 d5 8c 3b 56 58 9c 3b 76 f0 19 bd cb bb ab 3c
       0.004297905 0.0047712727 -0.037582837 0.02096357
000220 86 49 2b bc bd 0f ca bc 6c 36 f8 3c 2f bb 07 3b
       -0.010454541 -0.024665708 0.030299388 0.0020710935
000230 f9 df 86 3b e5 eb 5f 3d f9 3f 99 3a e3 1d d6 3c
       0.004116055 0.054668326 0.0011692039 0.026137298
000240 87 42 67 bc 6b ca 40 3d 68 fe ae 3c 12 1e 7f bd
       -0.014114982 0.04706804 0.021361545 -0.062284537
000250 b9 34 02 3d 20 52 79 3c ee 19 05 3d 4c 75 21 bc
       0.03178856 0.015217334 0.03249543 -0.009854626
000260 9e 7b 42 3d f8 82 86 3c 0d 38 6a 3d 4e 7b bb 3c
       0.04748117 0.016419873 0.05718236 0.022885945
000270 da 20 32 3d 8f 7c d0 bc 22 36 fd bc 53 0d 2e 3d
       0.04348836 -0.02545002 -0.030909602 0.042493176
000280 e1 5b 2b 3d fa bd 81 3d 20 f2 37 3c db 5a 01 3d
       0.04183567 0.06335063 0.011227161 0.031580787
000290 8e 9e 73 3c bf c3 02 bd 3a 2d 46 3d d6 4a 9c bc
       0.014869345 -0.03192496 0.048382975 -0.019078653
0002a0 3b fe 52 bc 9a be a4 3c 53 68 2b bd 61 05 ba 3b
       -0.012877996 0.020110417 -0.04184754 0.0056769107
0002b0 45 dd 23 3d 13 0d 26 bc 85 11 a6 3c 65 be c5 bc
       0.04000594 -0.010134953 0.020272026 -0.024138639
0002c0 e8 cd 13 3d 63 ae 40 3a 3d be f0 3c 5e ce 6c 3d
       0.03608504 0.00073502044 0.029387588 0.057813995
0002d0 ad eb ff 3b 9d 9e 51 3d e8 36 7f bb 48 d0 82 3d
       0.007810077 0.051176656 -0.0038942639 0.06387383
0002e0 99 f3 3e 3d 75 16 11 bc 3b bb 79 bc f3 26 18 3d
       0.04661903 -0.008855452 -0.015242393 0.03714652
0002f0 69 26 6d bc 58 0c 43 bc f5 97 ce ba 2a 40 4b 3c
       -0.01447449 -0.011904798 -0.001576184 0.012405435
000300 55 ee 23 bd 3d 39 57 3d ad 7d 89 3c 10 1b 2b 3d
       -0.040022213 0.05254482 0.01678356 0.041773856
000310 07 51 b6 3c 39 ab 92 bb dc e0 10 3d de 13 a7 3a
       0.022255434 -0.0044759777 0.035370693 0.001274701
000320 73 97 f5 3b f4 28 46 bd fc a6 18 bd 2f 8f 55 3d
       0.007494861 -0.0483789 -0.037268624 0.052138504
000330 7c 8e 93 3d 95 bc 61 3d 6c 3d a7 bc b6 76 2d bd
       0.07204911 0.055111486 -0.02041503 -0.04234954
000340 59 db 33 3c 93 5d 58 bd d1 6b 85 bb 2e ab a6 3c
       0.0109775895 -0.052823614 -0.0040716906 0.020345297
000350 2d 26 8d bc 04 d2 46 bd 9a 8d 8f 3c 4b 6b 82 bc
       -0.017230118 -0.04854013 0.017523576 -0.015920302
000360 ef ac c1 3c 86 31 61 3b 8c aa 4a bc 82 58 20 bd
       0.023642031 0.0034361794 -0.012369763 -0.039146908
000370 4a b9 38 bd 3a 03 cb bc 52 7a 27 3d 7b 33 61 3b
       -0.04509858 -0.024781812 0.040888138 0.003436296
000380 b9 00 75 3c f8 2b 7b 3c bb 7f d0 3c 71 bd 7d ba
       0.014953786 0.015330307 0.025451532 -0.0009679413
000390 99 80 fe 3b 17 0d 86 bc 68 39 be bc 93 0e bc 3c
       0.007766795 -0.016363664 -0.023220733 0.022956168
0003a0 40 a3 27 bd c5 31 ac bc 19 d2 8d bc 60 ca 25 bd
       -0.04092717 -0.021019826 -0.017312096 -0.040476203
0003b0 f6 73 83 3c 35 2b 7a 3c 46 81 29 3d 26 a6 80 3c
       0.016046505 0.01526909 0.04138305 0.015704226
0003c0 7f 53 9a bc 73 41 61 3c 8b 6b 53 3d 97 1d 12 3d
       -0.018838642 0.0137485145 0.051616233 0.03567275
0003d0 f3 2d 8e bc 47 fa cc 3b 92 22 46 bc 36 ba ee bb
       -0.017355895 0.0062554213 -0.012093203 -0.0072853817
0003e0 eb 58 2e 39 c2 4c ef 3c 1e d6 77 3d 2f bf da 3c
       0.00016627058 0.029211406 0.060506932 0.026702492
0003f0 b4 3a 1f 3d bf 86 25 3d 4f cb b0 3c d6 54 2e 3c
       0.038874343 0.040411707 0.02158132 0.010640344

A_weight_2 f4 [4, 768]
000000 e0 6b aa bd 7f 0d b5 bd 0c 16 4a bd c8 0d 08 3e
       -0.08321357 -0.08840465 -0.04933743 0.13286507
000010 0d ca ea 3d 2a 60 1a 3e 60 c3 89 3d 33 11 11 be
       0.114643194 0.15075746 0.06726718 -0.14166717
000020 83 40 9a 3b f0 ce 0c bd 35 0b 21 3c 4d 8c b6 bd
       0.0047073974 -0.03437704 0.009829332 -0.08913479
000030 76 0a 8d bd 25 d2 56 bb a6 3c 74 bc 4f 81 ac bb
       -0.06886761 -0.0032779064 -0.014907038 -0.005264438
000040 e8 07 39 3d 1b f8 b3 3d 0e aa 06 3d bd 63 66 bb
       0.045173556 0.08787557 0.03287702 -0.0035154663
000050 32 4a 81 bd bd cb ed bd ed 7f 8c bb cd c4 26 bd
       -0.0631298 -0.116111256 -0.004287711 -0.040715028
000060 25 91 b7 bd 7b aa be 3c 07 16 e2 bd e2 2d aa bd
       -0.08963231 0.02327465 -0.11039358 -0.08309533
000070 1a 10 5a bd 19 b7 98 3c 40 d3 0d 3d f3 76 9f bd
       -0.053238012 0.018641995 0.03462529 -0.0778636
000080 bd a0 1c 3e e4 d2 fe bb d2 44 a8 bd 17 02 b0 bd
       0.15295692 -0.007776605 -0.082162514 -0.085941486
000090 57 c9 b3 3c 30 f9 a2 3d b7 5e 0a 3d 34 95 02 3d
       0.021946592 0.07957685 0.033781733 0.031880572
0000a0 2d 65 85 bd 95 0b de 3d 49 a0 88 3d 15 bf da ba
       -0.065134384 0.10842053 0.06671197 -0.0016689027
0000b0 b7 41 2f bb 90 d0 7c bb f3 d6 b2 3d 0f 00 26 3d
       -0.002674205 -0.0038576461 0.087324046 0.0405274
0000c0 2d 4e 7e 3c c9 51 cc bb c3 2f ca 3c a2 bc e3 bd
       0.015521568 -0.0062353355 0.024680978 -0.11119963
0000d0 ab 74 dd 3b 1a 88 be 3c 82 6a 7f 3d d5 10 b4 bd
       0.0067582927 0.023258258 0.062357433 -0.08792273
0000e0 2b 63 a2 bc 2a da 5d 3d 2e 72 d6 3c 4e df 33 3d
       -0.019822678 0.054163136 0.026177492 0.04391413
0000f0 53 d0 00 3d 8e f3 c8 bc 8f 2e 9a bd 8e 1d cb 3c
       0.031448673 -0.024530198 -0.075284116 0.024794366
000100 b6 b9 44 3d 0d 8f 43 bc 82 75 e0 3c a9 5b c7 3c
       0.04802867 -0.011935961 0.027399782 0.0243357
000110 0f f2 db bc 2e 1d b6 bc 2e c5 92 bd df 4f cb 3d
       -0.026848821 -0.02223071 -0.07166515 0.099273436
000120 d3 9b c6 bd 4e bd 66 3d b2 b3 54 3d 47 59 5b bd
       -0.0969769 0.05633288 0.051929183 -0.05355194
000130 87 7b 76 bd 63 ad 3e 3d 37 1c 46 bd 9d 8c 78 bd
       -0.0601764 0.046552073 -0.04836675 -0.060680974
000140 f4 0c 66 3d 42 57 08 3d d8 ee 25 bd fd 5b 54 3d
       0.056164697 0.03328634 -0.040510982 0.05184554
000150 5c 13 2a 3d 0b 78 b8 3c 3b 61 7c 3c 06 72 7c 3c
       0.04152237 0.022518178 0.015404041 0.015408045
000160 c2 34 c4 ba 30 5f d9 3c f6 a5 8d 3d a9 5f a8 bc
       -0.0014969336 0.026534647 0.0691642 -0.020553427
000170 e3 e5 b6 bd 63 e4 2c bd f4 1f 91 3b 3a 4f 46 bd
       -0.08930566 -0.042209994 0.004428858 -0.0484154
000180 2b 60 24 bc 30 70 af bd 73 ce 4e bd c0 5f 77 3d
       -0.010032694 -0.0856632 -0.050489854 0.06039405
000190 ea e5 83 bd a5 32 b1 bd 51 d6 93 3d 02 45 b5 bb
       -0.06440337 -0.08652238 0.07218612 -0.005531908
0001a0 f6 5b 47 3d b9 ed 72 bc 22 e0 ab 3d 76 53 3d 3c
       0.048671685 -0.014827185 0.08392359 0.011555543
0001b0 82 26 34 3d 06 de e0 3b 78 db 2e 3c 73 87 07 bd
       0.043982036 0.0068624048 0.010672443 -0.03308816
0001c0 88 d4 8a ba d6 6a 82 bd 7b ed 98 bb cf 39 70 3d
       -0.0010591904 -0.063680336 -0.0046669818 0.05864888
0001d0 ec b2 a3 3d 7e 81 ed 3c 10 25 de bd 2e 47 09 3d
       0.07993111 0.02899241 -0.10846913 0.033515148
0001e0 c3 8b 12 be ac 95 55 bd 6b e8 68 bc dc f0 82 bd
       -0.14311127 -0.05214469 -0.014215569 -0.063935965
0001f0 97 84 d8 bd 97 05 dd bb 35 60 09 bd f2 1d 65 bd
       -0.105721645 -0.006745051 -0.033539016 -0.05593676
000200 b7 fa 11 3d 03 30 cd bc 33 5b 68 bd 01 a7 e4 3d
       0.03563949 -0.025047308 -0.0567276 0.11164666
000210 6d 93 2e 3d 8d 2f 10 bd 36 b1 db bc 0e 00 70 bc
       0.042621065 -0.035201598 -0.0268179 -0.014648451
000220 64 b3 9d bd e5 5e c6 bd ce 8c 8f bd f2 eb ea bd
       -0.07700232 -0.096860684 -0.07009278 -0.11470784
000230 c3 9b b7 3d f3 5c e5 3a 4e 01 cb 3c 20 bb ac bd
       0.08965256 0.0017499015 0.024780896 -0.08434129
000240 57 f9 db 3c ad 57 3d bd 89 e7 88 bc ca 6b 78 bc
       0.026852293 -0.046226192 -0.016711967 -0.015162418
000250 5a 19 b6 bd bb 54 21 bd 36 cc 3f bd 5e f8 3b 3d
       -0.08891554 -0.039387446 -0.04682561 0.04589116
000260 e4 ac 60 bd 07 23 d6 3d 2c c4 93 3d dc b3 29 bb
       -0.05485238 0.104559 0.07215151 -0.0025894558
000270 77 fa b7 bd 3f 71 15 bd cc bb c1 3c 8f c2 24 bd
       -0.08983319 -0.036484953 0.023649119 -0.040224608
000280 40 5b 93 bc 74 f3 c5 3d 01 e2 9b bc fe df 58 bd
       -0.017987847 0.096655756 -0.019028665 -0.05294799
000290 48 d9 b2 3d 33 be 20 3d 3c fb d5 3d 81 d8 e9 3d
       0.08732849 0.039243888 0.1044831 0.11418248
0002a0 17 34 e0 bd 2a 99 41 3c f6 27 81 3d c9 19 86 3d
       -0.10947435 0.011816302 0.0630645 0.06547887
0002b0 ca a8 24 bd 39 31 0b be 82 65 a9 3d 13 0a d8 bd
       -0.040200032 -0.13592996 0.08271314 -0.105487965
0002c0 5f 62 aa 3c ae 1f 03 bd ee 38 ac 3d fe 98 8e bd
       0.02079886 -0.032012634 0.08409296 -0.06962775
0002d0 9e 6f 02 bd 6e 94 87 bd 04 a3 56 bd 73 e2 9b bc
       -0.031844728 -0.066201076 -0.052401558 -0.019028878
0002e0 71 a8 e0 3c a4 f7 fa bd a8 63 a6 bd a8 c9 19 bd
       0.02742407 -0.12254265 -0.08124477 -0.03754583
0002f0 9d 76 bc bd 4c 33 44 3c d7 1e 3a bd 88 cd af bd
       -0.09202311 0.011975121 -0.045439567 -0.08584124
000300 24 03 d1 3b a2 95 a2 3d b4 35 b9 3c d1 0e 6e bd
       0.006378548 0.079386964 0.022608615 -0.0581196
000310 05 e4 1b 3c 0c ea 8b bc d7 10 9f 3d 18 56 fe bc
       0.009514813 -0.017079376 0.07766884 -0.031046912
000320 26 c0 28 3c 62 1f 09 be 6c 06 54 3c 73 39 a3 bd
       0.010299718 -0.13390878 0.012940984 -0.07969942
000330 31 0d 7b 3d be 24 8c 3b 94 49 d4 3d 67 2d 28 3d
       0.061291877 0.004276841 0.103655964 0.041058924
000340 03 47 76 3d 37 fb b5 bc 30 ce 83 3c de 92 e5 bb
       0.060126316 -0.022214515 0.016089529 -0.0070060333
000350 49 57 11 3d 8c f5 46 bc 5a e6 a2 3d 5c b7 2a bd
       0.035483632 -0.012143504 0.07954092 -0.04167877
000360 8e f5 ab 3d 57 8e ad 3d dc a6 bd 3a fe 30 bf bd
       0.08396445 0.08474415 0.0014469284 -0.093355164
000370 0b 4c cc bd 37 35 7e 3c 6e 5c 50 bc aa 95 ac bd
       -0.099754415 0.015515617 -0.012717349 -0.08426984
000380 85 0e 0b bd 20 7b ee 3c 10 e9 46 bd d3 38 a2 bc
       -0.033949394 0.029111445 -0.04856211 -0.019802487
000390 00 34 48 bd 26 9e 23 bc ef 05 3a 3d 07 11 d5 bc
       -0.048877716 -0.009986436 0.045415815 -0.026009096
0003a0 71 2d 64 3b dc 53 01 3d c9 f3 d5 bb d7 8c 49 3c
       0.0034817124 0.031574115 -0.0065293056 0.012301645
0003b0 3b 96 83 3d 63 c9 5c 3d 4a 1e ce bd 7b 5d 2b bd
       0.064251386 0.053902995 -0.10064371 -0.041837197
0003c0 be 90 7f bd fc 14 bc bc 83 ea b1 3d 09 39 1e bc
       -0.062393896 -0.022959225 0.08687308 -0.009657153
0003d0 1d 75 4e bc fb ab a1 bb 29 d8 d1 3d e1 71 5d bd
       -0.012601164 -0.0049338317 0.102463074 -0.05406368
0003e0 11 68 48 3c 40 f6 94 bd d0 dc 06 3d 56 b7 50 bd
       0.012231843 -0.07273531 0.032925427 -0.050956093
0003f0 db 11 8f bd f4 dc e7 bd c7 b3 21 3d dd b9 92 bb
       -0.069858275 -0.1132144 0.03947809 -0.004477723

A_weight_3 f4 [4, 768]
000000 af d2 fd bc 84 2e b1 bc a8 56 7b bd 65 c6 50 3d
       -0.03098425 -0.021628626 -0.06136194 0.050970454
000010 13 89 4d 3c be 7d ec 3c a7 55 3c 3d 8b 8b 6d bd
       0.012544888 0.028868552 0.045980122 -0.057994407
000020 f8 ab be bb 93 ea 05 3c 00 b1 17 3c 2f 20 0b bd
       -0.00581884 0.008173603 0.009258509 -0.03396624
000030 7f 96 e6 bb 42 a3 70 bc c7 40 90 3d b1 29 12 bd
       -0.0070369835 -0.014687361 0.07043605 -0.03568429
000040 c0 aa 27 3c 1c 29 2e 3d 69 57 ac bc 56 4c 1a 3d
       0.010233581 0.042519674 -0.021037774 0.037670456
000050 38 b5 09 bd e8 72 42 bd 2d da d3 bc 81 5b 5c 3d
       -0.03362009 -0.047472864 -0.02586087 0.053798202
000060 c1 b2 36 bd a7 14 21 3d 75 9f 92 bc eb fd ea bc
       -0.044604067 0.039326336 -0.0178983 -0.02868553
000070 ab 07 81 bd d4 ce 2b bd 3d dd 7e 3c 79 8a 96 3b
       -0.06300291 -0.041945294 0.015555677 0.004594144
000080 e1 92 52 bc 12 6b 2d bd c1 c4 36 bd 18 3b 01 bd
       -0.0128524015 -0.04233844 -0.044621233 -0.031550497
000090 76 18 af 3d c3 29 cb 3d da 4d 15 3c e9 06 b3 3d
       0.085495874 0.09920075 0.0091128 0.087415524
0000a0 97 72 5d bc 21 7e 2b 3d d9 ce 77 3d c0 29 92 bc
       -0.01351609 0.041868333 0.0605 -0.017842174
0000b0 76 43 3f bc e3 0f 91 3d f8 1e 84 bd 50 a6 45 bd
       -0.011673799 0.07083108 -0.06451219 -0.04825431
0000c0 26 c6 43 3c 10 ec 8a 3c 7d ac 49 3d f4 7f 3c bd
       0.011949098 0.016958266 0.049236763 -0.046020463
0000d0 02 05 8e bc 0d d7 ab bc fe bf 23 bc 5b 6f 97 3c
       -0.017336372 -0.020976568 -0.009994505 0.018485716
0000e0 ef bf 82 bc 66 46 6d bd 27 dc d5 3c 98 87 cd 3c
       -0.015960662 -0.057928465 0.026105953 0.02508907
0000f0 4b 35 b3 bc 25 60 75 3d 38 9b 44 bd 1c 98 41 bd
       -0.021875998 0.059906144 -0.04799959 -0.047264203
000100 d0 8c e6 3b a6 6f d7 bc 50 f8 d7 bb 39 a0 ac 3c
       0.007035829 -0.026298355 -0.0065908805 0.021072494
000110 ed 18 2b 3d 2e 1c be bc 53 75 3e bc 0b d4 82 3c
       0.041771818 -0.023206796 -0.011624652 0.01597025
000120 0a 7e e4 bb 9d 6e fd 3b a9 69 a2 bc 5d b8 58 bc
       -0.006973033 0.0077341334 -0.019825773 -0.013227549
000130 8d b4 f7 3c 24 47 48 3c 47 d5 1a 3c be 2a 31 3d
       0.03023746 0.0122239925 0.009450263 0.043253653
000140 65 74 62 3d 83 91 1d b9 a9 d6 00 3d 97 66 48 bd
       0.055286784 -0.00015026894 0.031454716 -0.048925962
000150 a7 44 90 bd 83 c3 e4 bc 30 b5 30 3c 5e f1 06 bd
       -0.070443444 -0.027925259 0.010785386 -0.03294503
000160 be 77 28 3d 90 b9 66 bc 06 27 b3 bc 5b a2 9f 3c
       0.04112982 -0.0140823275 -0.021869194 0.019486597
000170 8e 27 29 3c 3d d3 ac 3d a0 b2 49 bd 55 e2 9a bb
       0.010324372 0.08438728 -0.049242616 -0.004726688
000180 86 c5 16 3d 90 90 92 bd f6 8b 28 bb 0c b1 02 3c
       0.036809467 -0.07156479 -0.002571819 0.007976782
000190 ad 3f a3 bd 85 96 17 bd 2c 45 4a 3d de 8e 7e 39
       -0.079711296 -0.03700878 0.049382374 0.0002427655
0001a0 2d a5 1b bc 37 5a cb 3c 52 88 a4 3d 8c 71 af 3d
       -0.00949983 0.024823291 0.080338135 0.08566579
0001b0 44 91 b0 bd ff ef 74 3d 1a a1 9c bc fe c9 86 bd
       -0.08621457 0.05979919 -0.019119788 -0.06581496
0001c0 6b 22 c8 3c cb 44 51 bd 26 24 4d bd 51 bc 6a 3c
       0.024430474 -0.051090997 -0.050083302 0.014327125
0001d0 7e de 4f 3d ce 93 a7 3c b9 7b 97 bb 36 91 68 3d
       0.050749294 0.020456221 -0.004622903 0.05677911
0001e0 91 aa 63 bd 66 50 5d bd 94 2e ad 3b 48 bf 76 bc
       -0.055582587 -0.054031752 0.0052850936 -0.015060253
0001f0 e6 30 bf 3c a7 77 8d bd fb 43 44 3c 9f 0a ae 3c
       0.023338746 -0.069075875 0.011979098 0.021245299
000200 b4 ed cc bc 62 11 81 3b 84 fa 8c bc e2 04 87 3b
       -0.02501569 0.00393884 -0.017209299 0.004120455
000210 f3 bd 90 bc 89 4d a1 bc 48 fa 75 bc 2d a2 a7 3c
       -0.0176687 -0.019690292 -0.015013285 0.020463074
000220 d1 9c 0a bd f0 b5 26 bd 2c 0f 95 bc ed 78 8f 3c
       -0.033840958 -0.040700853 -0.018195711 0.017513717
000230 ad 53 03 3c 0a 46 18 3d 17 c5 06 3b ef 98 39 3d
       0.008015555 0.03717617 0.0020564252 0.045311864
000240 90 9d 90 3d 03 00 9b 3d c4 0d 36 3d dc 55 be ba
       0.07061303 0.075683616 0.04444672 -0.0014521438
000250 08 67 37 3b 8f c4 f7 3c 36 35 36 bd 4b 22 84 bd
       0.0027984995 0.030245094 -0.04448434 -0.06451853
000260 e2 e0 24 bd 0b d5 5e 3c 6b 50 4e bd 6f ca 5c bb
       -0.040253527 0.013600598 -0.05036966 -0.0033689996
000270 29 25 6f 3d 49 5c 67 bd 6f 9d dd 3c a7 25 3f bd
       0.058385048 -0.056484494 0.02705261 -0.046666767
000280 8f 4b 90 bd d3 b2 75 3c ea 12 99 3c 3b 31 c9 bc
       -0.07045662 0.014996248 0.018685777 -0.024559608
000290 48 3f e1 bc 6e 45 41 bd b2 c2 cb 3c b9 e9 a1 3d
       -0.027495995 -0.047185354 0.024873111 0.07905907
0002a0 81 3d 90 bc 44 f0 05 bd 7e 88 a7 bb 93 81 5c bc
       -0.017607452 -0.03269984 -0.0051127067 -0.013458627
0002b0 a5 e2 2d 3c 7d 4e 86 bd d2 10 9a 3d de 1f 14 bd
       0.010613118 -0.06557939 0.075227395 -0.036163203
0002c0 fe d9 0f 3c 3e 65 61 3d e6 89 bf 3c 52 db 3d 3d
       0.008780001 0.055028193 0.023381185 0.04635174
0002d0 0c f5 3e 3d a2 71 9a bc 40 d1 87 bd 50 79 30 3d
       0.046620414 -0.018853012 -0.06631708 0.043084443
0002e0 9a 02 ea bc 35 dc 97 bc 65 24 94 bc aa bd d0 bd
       -0.028565694 -0.01853762 -0.01808376 -0.101924255
0002f0 9f 88 4f bd f2 22 89 3d 27 a7 0d bd 7f 41 d9 bc
       -0.0506674 0.066961184 -0.034583237 -0.026520489
000300 da 33 64 3d 5c 45 02 3d b7 b2 13 3c 3d f9 a5 3c
       0.055713512 0.031804428 0.009014777 0.020260448
000310 14 0d 7b b8 1c 04 e0 bc b8 f7 58 3d 04 c0 5e bd
       -5.9855243e-05 -0.02734571 0.052970618 -0.05438234
000320 cb 48 af bd 3f e8 bf ba 9e 00 bd 3b 3d ec 3f bd
       -0.08558806 -0.0014641358 0.005767896 -0.046856154
000330 b4 1a 26 3d d4 08 85 3d b2 4d 9c 3c 65 96 29 3c
       0.04055281 0.064958245 0.019080017 0.010350798
000340 04 d7 90 3c 87 77 bc 3c d0 ee c9 bc 8c 87 02 3d
       0.017680652 0.023006214 -0.024650007 0.03186755
000350 6b 98 9c 3d d4 d6 a1 3d 65 04 a5 bb c0 ea 83 bc
       0.07646259 0.07902303 -0.0050359243 -0.016103148
000360 f8 dc 2c 3d 05 b3 c2 3c 98 dc c1 bc 09 ab 96 3b
       0.04220292 0.023767004 -0.023664758 0.0045980257
000370 c0 7d ac bd ee 7d ae bd b6 9b e4 b8 6a 4d a5 bd
       -0.084224224 -0.08520113 -0.000109008906 -0.08071406
000380 38 ad da 3c 53 41 2e 3d 01 aa 17 3d 10 4d 91 3d
       0.026693925 0.042542767 0.037027363 0.07094777
000390 43 de ac bc d4 48 4e bc 13 a9 92 3d 6a 3e 7c bd
       -0.021102076 -0.012590606 0.071611546 -0.06158296
0003a0 66 e2 ba 3c c1 63 d1 bc 14 fe f1 bc 85 24 8f 3b
       0.022813033 -0.025560262 -0.0295401 0.004368367
0003b0 d8 72 90 3d 4d 08 06 3d 19 0b ac bc 44 7c 2d 3d
       0.07053155 0.03272276 -0.021001386 0.042354837
0003c0 18 91 65 bd d2 65 98 bd 34 b5 14 3d 7f c1 d7 bc
       -0.056046575 -0.07441296 0.03630562 -0.026337383
0003d0 39 4d 9a bd e6 d3 ae 3d d1 69 69 bb 0c b9 57 bd
       -0.0753426 0.0853651 -0.003561605 -0.05266671
0003e0 95 ea 05 3d d7 b5 03 bd 3b 74 ad 3d 6f c3 85 3d
       0.032694418 -0.032155838 0.08469435 0.065314166
0003f0 7d f0 ff 3c de aa 29 3c 2b 52 c7 bc 0f 9e b9 3c
       0.031242603 0.010355679 -0.024331173 0.022658376

A_weight_4 f4 [4, 768]
000000 a4 06 c6 bd e3 68 b3 3c d5 f0 3b bc 43 22 a8 3d
       -0.09669235 0.0219006 -0.011470993 0.0820966
000010 d3 5c 91 bd ec 7f 7e 3d 91 cb eb 3d 12 45 0a 3d
       -0.07097783 0.062133715 0.115134366 0.033757277
000020 a6 7d 68 3d 7a 18 66 3d 8b f6 01 be b0 c8 ac bd
       0.056760453 0.056175686 -0.12691705 -0.084367156
000030 43 a2 9c 3d 08 0a f5 3b cf 47 c6 3d 47 ed f0 bc
       0.076481365 0.0074780025 0.09681665 -0.029410018
000040 2c 6b 2e 3d 15 b4 78 3d 8b 92 f1 bc 51 39 40 3d
       0.042582676 0.060718615 -0.029488822 0.04692966
000050 0f 96 19 bd da 16 1b bc f1 a9 9a 3d 43 eb 18 3d
       -0.037496623 -0.009465897 0.07551945 0.037333738
000060 80 26 15 be 7a c5 6a 3d 3c 6d 3d bd fa 7c a3 bd
       -0.14565468 0.057317235 -0.046246752 -0.07982822
000070 2b 1c dc bd e7 3d 88 bd 88 de 7c 3d 67 73 a7 3c
       -0.1074756 -0.06652432 0.06173566 0.02044077
000080 57 2b cd bb 3e 42 74 3d 3d 29 88 3d b0 4d 7e bb
       -0.00626127 0.059633486 0.066484906 -0.003880363
000090 09 09 bc 3d 52 d7 e3 3d df 8c f6 3d 21 c1 80 3d
       0.09181411 0.111250535 0.12038588 0.062868364
0000a0 cf 3f 9c bd e0 82 b9 3d 93 69 56 bb cc f2 93 3d
       -0.07629358 0.090581656 -0.0032716736 0.07224044
0000b0 36 bb d4 3c 46 1a c4 3c 73 ec 97 bd a1 de 77 3c
       0.025968175 0.02393831 -0.07418146 0.015128762
0000c0 43 b9 a2 bd 4e 9b 93 bd d0 d5 47 bd 44 03 c0 bd
       -0.07945492 -0.072073564 -0.048787892 -0.09375623
0000d0 2f 92 63 bd 5d f4 c5 bd cd 46 40 3c cc a6 53 bd
       -0.055559333 -0.09665749 0.01173563 -0.05167274
0000e0 96 7f 00 bd 14 f1 dd bd bf d8 18 3e 54 1a 10 bd
       -0.031371675 -0.10836998 0.14926432 -0.03518136
0000f0 0b 78 92 bd 9a 67 c3 3c e7 be 04 be 2c a1 89 3d
       -0.07151803 0.023853112 -0.12963448 0.06720194
000100 ae c9 0f 3d 72 f6 1e be 87 00 05 bd 5b e1 a1 3d
       0.035104446 -0.15523699 -0.032471206 0.07904311
000110 3a 76 8d 3d 48 f1 18 3e a5 3c 16 3d 26 ae 98 3d
       0.069073156 0.14935791 0.03667893 0.07455091
000120 1e 24 8e 3d 23 aa 2e bd 4c b1 d9 3d f9 17 ac 39
       0.069404826 -0.042642724 0.1062952 0.00032824258
000130 b8 83 b7 3b 98 b8 ff bd 06 2b ad bd d9 af ee 3c
       0.005600419 -0.1248638 -0.08455472 0.029136585
000140 65 ed 62 3c e9 a8 f6 3d 27 f7 3b 3d b7 2e 77 bd
       0.013850545 0.12043936 0.04589 -0.060347285
000150 fa 53 c4 3c 96 82 d5 3a e8 b2 24 bd 87 3a ba bd
       0.023965824 0.0016289528 -0.04020968 -0.090931945
000160 95 6e ad 3d b6 fc 96 3c 3f 0c 2b bd f8 5f 09 be
       0.084683575 0.018431049 -0.041759726 -0.13415515
000170 4b 6a f8 3d 72 74 50 bd 3a 41 53 bd 11 e3 d3 bd
       0.12129649 -0.0508923 -0.051575877 -0.10346044
000180 ba 7c f6 3c 28 a3 52 3c 64 d5 90 3d 37 8c 12 be
       0.030088771 0.012856282 0.07071951 -0.143113
000190 88 ee 4f bd 52 d8 fa bc ec 16 48 3d 9e 5e bc bd
       -0.05076459 -0.030620728 0.048849985 -0.09197734
0001a0 28 3c 50 3d 65 1b 86 bd cd 83 a2 3d 68 53 e2 3d
       0.05083862 -0.06548194 0.07935295 0.11051065
0001b0 10 67 8a bd 4c 7e 91 3d 44 c7 aa 3d 52 6d 03 be
       -0.06757939 0.07104167 0.08338788 -0.12834671
0001c0 ff 80 8f bd 4c 10 04 bc ef a1 25 bd b4 2f 36 bd
       -0.07007026 -0.008060526 -0.040437635 -0.044479087
0001d0 2b f0 28 3d 1c 57 81 bd ae 31 24 3d 71 7e e3 3c
       0.041244667 -0.06315443 0.04008644 0.027770253
0001e0 16 0c 87 bd b9 45 41 bb 83 e5 b3 bd 23 6d 59 3d
       -0.06594102 -0.002949102 -0.0878401 0.053082597
0001f0 84 27 b1 bd 56 85 d7 bd f4 6e c7 3d b2 f8 fe bc
       -0.08650115 -0.10523479 0.097379595 -0.031124447
000200 77 dc f4 3d b8 30 36 3d 3d 33 d7 3c a8 b8 df bc
       0.11956113 0.044480056 0.02626955 -0.02730973
000210 ff 8e 1c bd 53 27 2f bd 37 bc 5f bc 67 a4 c5 bc
       -0.03822231 -0.042762112 -0.013655714 -0.024126245
000220 02 16 82 bd 90 c0 a3 bd 04 17 0b bd 5f b0 4c bd
       -0.06351854 -0.07995713 -0.033957496 -0.049972888
000230 3d 61 63 bd b9 d7 12 3d e2 98 0e be c2 7d 49 3d
       -0.055512656 0.03585026 -0.13925508 0.049192198
000240 c5 11 86 bc 12 f8 00 3e 94 ca ef bc 1b 1f 01 3e
       -0.016365895 0.12594631 -0.029271401 0.12609522
000250 91 6c 06 bd a1 40 9e 3d 11 bf 28 3c 9d 3a 80 3d
       -0.03281838 0.07727171 0.01029946 0.062611796
000260 82 87 f8 bd e6 a0 ad 3c 5a d5 cd bd d7 f6 cb bd
       -0.12135221 0.021194886 -0.10050459 -0.0995919
000270 07 fb bc bd 69 9d d5 bd a9 71 87 bc f1 65 1b 3e
       -0.09227567 -0.10430414 -0.01653369 0.15175606
000280 04 46 76 bd 6e 96 b3 3d 5b e7 8a 3d 54 14 d3 bd
       -0.060125366 0.087689266 0.06782409 -0.10306612
000290 55 a9 98 3d b0 12 51 bd 68 21 3a bb 73 9f ae 3d
       0.074541725 -0.051043212 -0.002840126 0.08526506
0002a0 ca 49 c2 bd d5 82 74 bd cd f4 2d bd 3c 0e f2 39
       -0.094867304 -0.059695084 -0.04246979 0.00046168442
0002b0 09 57 4d bc 15 6f 96 bd 79 f9 9e b9 26 70 b8 3d
       -0.012532958 -0.07345406 -0.0003032198 0.090057656
0002c0 73 79 d6 bc 5b 7c 19 3b 39 bc 11 3e ea e8 fd 3d
       -0.026180958 0.002342007 0.14231957 0.123979405
0002d0 fb 5c d3 3d 79 43 bf 3a 4e 2a 90 bd 63 c1 57 3d
       0.10320469 0.0014592252 -0.07039319 0.052674662
0002e0 c4 da d1 bd 0e b9 dc 3c 8f a4 08 3d d3 62 05 bd
       -0.10246804 0.02694371 0.03336006 -0.03256495
0002f0 39 32 cc 3c 00 ed 06 be ff 88 39 bd d4 c1 03 be
       0.024926292 -0.13176346 -0.045296665 -0.12866908
000300 df a2 0b bd b9 02 a7 3d 4a a0 7e bc ad 85 81 bd
       -0.034090873 0.08154816 -0.015541146 -0.06324325
000310 f3 7e b5 3d 50 a2 f4 3d 22 3a dc 3c 3f b5 b0 bd
       0.08862104 0.11945021 0.026883189 -0.0862832
000320 09 a4 d7 bc 7d 7c cb bb a2 d1 95 bd da 4a f5 3d
       -0.026323335 -0.0062099085 -0.07315375 0.119771674
000330 63 9b 81 3d 1b cc c7 bc a9 36 82 3d 6b 08 83 bc
       0.06328466 -0.024389317 0.06358082 -0.015995225
000340 97 72 e0 3d 26 6d c7 3c 97 e1 97 3d 34 40 bd 3d
       0.10959356 0.024344038 0.07416075 0.092407614
000350 13 24 17 3e 8a 1e 5c 3d 67 5b d0 3d 6d eb 7a ba
       0.14759855 0.05374006 0.101736836 -0.00095718243
000360 f1 b5 cc 3c ac 1c 96 3d 70 9f c0 bd ab ff 8e 3d
       0.0249891 0.073296875 -0.0940541 0.069823585
000370 d1 a8 f6 bd bf ef 31 bc f3 c3 07 be 67 9c a9 bd
       -0.12043918 -0.010860383 -0.13258342 -0.082817845
000380 33 33 8a 3d 8d f7 80 bd fb 01 4e 3d ad de 29 3e
       0.06748047 -0.062972166 0.050294857 0.1658885
000390 0d 5d d8 bd 63 7d ff bd 2d 3d 79 3d c7 58 93 3d
       -0.10564623 -0.124750875 0.060849357 0.07194667
0003a0 c1 94 ce 3d 6a 71 7a bd 6f 38 c4 3d 4c e2 17 bd
       0.10086966 -0.061143316 0.09581076 -0.037081048
0003b0 a7 2f 97 3d 91 b7 51 3d 66 4f ab bd 38 9d 0e bd
       0.07382136 0.051200453 -0.083647534 -0.034817904
0003c0 c4 71 81 bd b3 f8 13 3d b3 e2 12 3e 2c b2 ac bd
       -0.06320527 0.03612585 0.14344291 -0.08432421
0003d0 ae 98 a8 bd 46 32 71 3d 2a da 68 3d 2b b9 e0 3c
       -0.08232246 0.058885835 0.056848682 0.027432045
0003e0 64 f1 d5 bc c2 66 4a 3d be 32 23 bd 6a a2 d6 3b
       -0.02611608 0.049414404 -0.039843313 0.006550123
0003f0 b8 95 18 3e d8 cd 9a bd d8 97 5e bc 06 f0 d8 3c
       0.14900863 -0.07558793 -0.013586007 0.02648164

A_weight_5 f4 [4, 768]
000000 36 16 ba 3c ec 48 2b bd c5 1d 25 3c 5b ac 11 bb
       0.02271567 -0.04181759 0.010077898 -0.0022227976
000010 b0 05 bc 3b fd 8e 14 3d f6 95 3c 3d e3 79 8d bc
       0.0057379827 0.036269177 0.04604145 -0.017270034
000020 f6 7a e7 3c fb 87 80 3d f8 a4 6c bd 2c ef ab bc
       0.028256875 0.06275936 -0.057774514 -0.02098807
000030 81 c1 32 3c 62 35 ab 3d fc 41 36 bc 0c 64 9a bc
       0.010910393 0.08359791 -0.01112413 -0.018846534
000040 d2 61 3c 3d 8a 01 37 3d 71 b1 1a bd 00 da 34 3d
       0.045991726 0.044679202 -0.037766878 0.044153214
000050 8a 78 a0 3d b7 2b fd 3b fd db 2b 3c 1c 18 9c 3c
       0.07835491 0.0077261585 0.010489461 0.019054465
000060 8d f4 42 bc 24 cc 9d bc db 43 3e bd 9b 89 00 bd
       -0.011899126 -0.01926238 -0.04645143 -0.03138123
000070 22 4a 98 3c df 48 91 3c f5 83 37 bd 09 6e 8a bc
       0.018590037 0.017734943 -0.04480358 -0.016898172
000080 9e 12 78 bc c9 dd 1a bd 4e 94 63 3a 99 f6 e6 3a
       -0.015141157 -0.037809167 0.0008681462 0.0017621099
000090 38 c0 4e 3c 5e 29 49 bb 79 a1 18 bc 61 47 fb 3c
       0.012619071 -0.0030694823 -0.009315842 0.030673685
0000a0 24 43 42 bd ee 1d 50 bd 3c 33 43 bd f8 cc 96 3c
       -0.04742731 -0.050809793 -0.047656283 0.018408284
0000b0 20 d8 ec bb 0b ef 04 bc de c2 4a bd 79 b3 33 bc
       -0.0072279125 -0.008113633 -0.049502246 -0.010968083
0000c0 4a 46 be bb d2 c2 15 bd 96 25 17 bc 99 17 0a 3d
       -0.005806719 -0.03656275 -0.00922527 0.03371391
0000d0 85 25 c7 bc f2 f9 e9 3c ee 7c 95 3b 2d 35 a1 bc
       -0.024309883 0.028561566 0.004562012 -0.019678677
0000e0 9b 7f 43 bd 29 00 bd 3b 20 1e 04 3d 18 fb 97 3b
       -0.047729116 0.0057678414 0.032255292 0.004638087
0000f0 14 75 28 3c 74 14 c7 3c a4 4e dc bc a1 b6 fe bb
       0.01028182 0.024301745 -0.026892968 -0.007773236
000100 cf 8c c1 38 78 51 75 3c b6 87 23 ba 1c ba 48 bc
       9.229185e-05 0.014973037 -0.0006238179 -0.012251403
000110 57 26 d3 3c 1a 4e 82 3c 13 e8 c7 3d 14 7e 89 bc
       0.025775118 0.015906382 0.097610615 -0.016783752
000120 0e f8 19 3c 7f 3b 4e 3d 86 4c 09 bd 0b ff 62 3c
       0.00939752 0.05034971 -0.033520244 0.013854752
000130 2c 31 1e bd 61 c2 26 3d d8 b6 8d 3c 68 ea 6a bc
       -0.038621113 0.040712718 0.0172991 -0.014338113
000140 f3 0f 22 bd 53 13 f8 3c 9d 95 1f 3c 1d a0 12 bd
       -0.03956599 0.030282652 0.00974026 -0.035797227
000150 20 18 4d 3c b5 af 0a bd 01 60 ae bc a3 96 92 bd
       0.012517959 -0.033858974 -0.021286013 -0.07157638
000160 98 3f 3c bd 0a d3 6e bd 94 e6 8e bd 1f 93 f2 bc
       -0.045959085 -0.05830673 -0.06977573 -0.029611168
000170 dd 05 76 3a ee 79 86 bc 3a e4 2f 3d ec 34 6d 3c
       0.0009385029 -0.016415562 0.042942263 0.01447795
000180 d5 2f 65 bd 4c 95 32 3d e6 8f fb 3c 0e 2a 60 3c
       -0.05595382 0.04359941 0.030708265 0.013681902
000190 ff b3 ee 3c 36 dc 32 bd 75 5e 04 bd a1 de e0 3c
       0.029138563 -0.04366704 -0.032316644 0.027449908
0001a0 74 7d b0 3c 91 35 e6 3c 69 4a 55 b9 15 ca 7a 3d
       0.021544196 0.028101714 -0.00020340983 0.061227877
0001b0 e4 09 56 bd c1 b2 6c 3c b6 85 54 3c 0b 42 45 bc
       -0.052255526 0.014446915 0.012971332 -0.012039672
0001c0 23 42 0b bc 9c 74 44 3b 08 5d cd bc 0b c0 0f 3c
       -0.008499655 0.0029976731 -0.025068775 0.008773814
0001d0 b2 de 26 3d 62 96 a7 bb cd 30 47 3d b3 f4 01 3d
       0.040739723 -0.0051143626 0.048630524 0.031727504
0001e0 29 75 1e bd 2a ef 4a bd 26 76 35 3d 80 44 06 3d
       -0.03868595 -0.04954449 0.04430213 0.03278017
0001f0 4d b4 57 bd 0a 5d c7 3c 94 fd 8e 3d 67 d2 1f 3d
       -0.052662183 0.024336357 0.0698196 0.039019015
000200 20 11 0a 3d 47 90 4b 3c ef 44 45 3d 16 e6 c6 ba
       0.033707738 0.012424535 0.048161443 -0.0015174772
000210 c5 32 5f 3b d3 65 b1 bb 98 f0 f4 3c 7c b0 a8 bc
       0.003405736 -0.0054137497 0.02989988 -0.020591967
000220 49 81 09 bb 41 83 0e bc f2 a3 cc bc 8a 89 81 3b
       -0.00209816 -0.008698286 -0.024980519 0.0039531635
000230 f0 05 92 3a a9 4c fa 3b 44 d8 be 3c c0 2b 58 3d
       0.0011140686 0.007638533 0.023296483 0.0527761
000240 80 5a f6 3a 6a 08 17 bd f2 83 58 3d 7d ae b2 bb
       0.0018795282 -0.03687326 0.052860208 -0.0054529295
000250 48 01 08 3c e2 72 ed 3c b1 9a a3 bc 56 c9 f3 3b
       0.008301087 0.028985444 -0.019971224 0.0074397726
000260 dc 50 50 bd 31 d8 5a 3b d0 ad d8 bc ff ce a1 3c
       -0.050858364 0.003339302 -0.026450068 0.019752024
000270 f7 5e e1 bb 02 af 44 bd b0 3d c5 bc c4 62 f1 3c
       -0.006877776 -0.048018463 -0.024077266 0.02946604
000280 a9 33 bf bc 79 38 8b bc 60 e0 af bb 61 cc e3 3c
       -0.023340063 -0.016994702 -0.0053673238 0.027807416
000290 cc ab 0f 3c 7a c3 2c bd f5 f1 04 bd 05 d8 03 bd
       0.008768987 -0.04217861 -0.03245731 -0.032188434
0002a0 22 f4 99 3c f5 c7 e1 3a 47 bb 80 bd 94 61 c6 bc
       0.01879317 0.001722573 -0.0628572 -0.02421645
0002b0 79 a6 10 bd 47 8b d8 3c 04 64 95 bd 98 86 5b bb
       -0.03531501 0.0264336 -0.07294467 -0.0033496972
0002c0 13 f1 b9 bd 00 27 8e bd a7 e0 ba 3c 11 ec 33 3d
       -0.090791844 -0.069410324 0.0228122 0.043926302
0002d0 cf a7 b9 3d 01 1b f1 bc 50 64 05 3d 64 ae 20 3d
       0.0906521 -0.029431822 0.03256637 0.03922881
0002e0 66 74 30 ba 84 f9 1d bd c0 50 85 bd fa 81 1b bc
       -0.0006731212 -0.038568035 -0.065095425 -0.009491438
0002f0 3f 02 86 3b 83 3d 1c 3d 36 e4 be 3b 54 18 9d bc
       0.004089623 0.0381446 0.0058255447 -0.01917664
000300 10 08 cc bc 46 9f 86 3b e0 76 7b bd 5a f8 55 bd
       -0.024906188 0.0041083423 -0.061392665 -0.0522388
000310 b0 7f 0a bd b8 cb 6c bb 5d e7 6e 3b d6 c1 15 3d
       -0.03381318 -0.0036132168 0.0036453821 0.03656181
000320 e2 92 5d bc 41 6b 42 3d bb a5 76 bd 61 42 ca b9
       -0.013523789 0.047465567 -0.060216647 -0.00038577899
000330 68 af 3f bd 62 7f 0f 3d ef 8a 09 bd 35 f8 36 3d
       -0.04679814 0.03503359 -0.033579763 0.044670302
000340 ef af 56 bc 53 2d 4f bd ca 5a 6e bc 84 96 b5 bc
       -0.013103469 -0.050580334 -0.014548013 -0.022166498
000350 4f 5d d7 3c 2e 60 12 3d 15 de d6 bc c0 4d a1 bc
       0.02628961 0.035736255 -0.026228944 -0.019690394
000360 6c c3 36 bd 80 ff 30 3c e6 1d 80 bd c6 95 b0 3b
       -0.044619963 0.010803103 -0.06255703 0.005388948
000370 34 08 af 3c 8d 35 67 bc a2 b5 11 3c 5b 1b cb bb
       0.021366216 -0.014111889 0.008893402 -0.0061983294
000380 f5 d3 fa 3c 9f 7d 63 bc c8 11 49 3d 2e cb b4 bb
       0.030618647 -0.013884931 0.049089223 -0.005517385
000390 03 87 a1 bc 1d 95 ac bb 19 f2 53 bd a3 6c 94 3c
       -0.019717699 -0.005266799 -0.051744554 0.018118208
0003a0 ef d3 24 3d 0f dd 3d 3d b8 04 b6 3c 11 7d 7e 3a
       0.040241178 0.046353396 0.022219047 0.00097079674
0003b0 32 3e 8f bb a6 ab af 3c 1e 67 f8 bc 1c ae 1a 3c
       -0.004371428 0.021444153 -0.030322608 0.009440925
0003c0 f0 10 d7 3c 09 0d 07 bd 8f 83 3a 3d ff 0d 32 3d
       0.026253194 -0.032971416 0.04553562 0.04347038
0003d0 fc 29 19 3c ff 01 66 bc 28 39 55 bb c5 2b ea bc
       0.009348389 -0.014038562 -0.0032535288 -0.028585324
0003e0 24 34 1f bd 9d 73 5f bd d4 24 04 3d 0a d4 1d bc
       -0.038868085 -0.054553617 0.032261685 -0.009633074
0003f0 9e 56 8c bc c2 11 52 bc 25 98 81 bd 60 c8 82 bd
       -0.017131146 -0.012821617 -0.063278474 -0.06385875

A_weight_6 f4 [4, 768]
000000 8e 1d 0a bd 29 63 04 be 3c 44 92 3d b0 57 43 bb
       -0.03371959 -0.12928452 0.07141921 -0.0029806904
000010 af 9f 4c 3c e9 47 8b bd d6 05 12 be 98 1f 6f bd
       0.012489243 -0.06800825 -0.14260039 -0.05837974
000020 a2 2a ce bd 2b 8e 17 be 44 47 00 be 72 aa 81 bd
       -0.10066725 -0.14800327 -0.12527186 -0.06331338
000030 37 71 ad bd 4c b2 3f bd ec 9f 57 bd e0 9c 07 be
       -0.0846886 -0.046800897 -0.052642748 -0.13243437
000040 5e 8d 24 bd c0 b9 84 bc c1 13 22 bd d0 19 93 3d
       -0.04017388 -0.016201854 -0.03956962 0.07182658
000050 ca 94 06 bc 3c fc ca bd c0 b2 31 3b db ad 34 3d
       -0.008214185 -0.09911391 0.00271146 0.044111114
000060 c2 d2 35 3e 30 bc ae 3d 92 9f 44 bd a6 c1 bd 3d
       0.17756179 0.08531988 -0.04800374 0.09265451
000070 f1 6b 13 3e e8 9c 97 3d d6 6a 4b 3d 53 4f f8 bd
       0.14396645 0.07402974 0.049662434 -0.12124505
000080 89 41 8f 3d fe 8a 1b 3e ef 7a e3 3d 2b 5e 51 bd
       0.06994922 0.1518974 0.11107432 -0.051115196
000090 74 ea 28 3d ae 17 24 3d b3 32 9d bd 2d 70 78 3d
       0.041239217 0.040061645 -0.07675686 0.060653854
0000a0 e8 ed b0 bd ab 44 49 3c b2 40 1c 3d a9 7b 10 3d
       -0.08639127 0.012284438 0.038147636 0.03527418
0000b0 23 99 18 3d f2 19 ac 3d f6 d0 fe bd a3 e4 5a bd
       0.037255418 0.08403386 -0.124422 -0.0534407
0000c0 82 eb e2 3d 05 72 25 3c 02 df b4 3d 7b 6c 8e 3d
       0.11080076 0.010097985 0.08831598 0.06954285
0000d0 0e b8 8e 3c f0 85 e2 bd 24 e9 c1 3d 8f 9c 41 3c
       0.017421748 -0.11060703 0.09468296 0.011817112
0000e0 cb 3a 08 bd b3 5a 1f bc 6d 09 09 be d1 7e df 3d
       -0.033259194 -0.009726214 -0.13382502 0.1091286
0000f0 a6 ec 57 bc 4a d4 da bd 6e 25 a5 3d 1a 0e be bb
       -0.01317898 -0.10685022 0.0806378 -0.005800021
000100 2c 12 46 3d 52 0f bb 3d 76 2c f9 3d 51 56 73 3d
       0.048357174 0.091337815 0.121666834 0.05940849
000110 10 f5 8f bd 5d ba 07 bc bf c4 a5 3d 25 c8 c7 bd
       -0.07029164 -0.008284179 0.08094167 -0.097549714
000120 7c d5 90 bd 63 de 70 3d 69 b4 36 bd 35 46 ab bc
       -0.07071969 0.058805835 -0.044605646 -0.0209075
000130 c8 79 dd bd b4 cb b5 3b ee dd c8 3d 83 ee 3d bd
       -0.108142436 0.005547965 0.09807955 -0.04637004
000140 cd 13 26 3d 56 99 aa bd cf 53 df bd 38 ed 79 3d
       0.040546227 -0.08330028 -0.10904657 0.061017245
000150 1d ec 67 bd 8e 15 18 3e ab b6 8f 3b 5d 09 5c 3d
       -0.05662166 0.14851972 0.0043857894 0.053719867
000160 0b ef 63 3d 65 9f 2c bc 79 2d d9 3d 9b 11 96 3c
       0.05564789 -0.0105360495 0.10604376 0.018318942
000170 ca 1e 80 bd d8 5b 59 bd 32 88 a7 3d 2f 98 bc bc
       -0.062558725 -0.053066105 0.08180274 -0.023021786
000180 23 6d cd bd 47 8d 77 3d b8 f8 dd bb 36 7c 00 3d
       -0.10030582 0.060437467 -0.0067740344 0.031368457
000190 26 24 5c 3d 97 7c 42 bd fb 87 c4 3c 5b 8c b7 bc
       0.05374541 -0.0474821 0.023990622 -0.022405794
0001a0 49 64 c1 3d 78 88 20 3e 32 10 88 bd 3f 06 b8 bc
       0.09442956 0.15677059 -0.06643714 -0.022463916
0001b0 4a b9 ea 3d 3f 35 6f bc 3d a7 39 be 5f 73 33 3d
       0.11461122 -0.014600097 -0.18130203 0.0438112
0001c0 ee 60 d3 ba da 10 e3 3d e9 8d c1 3d c8 f8 e6 3c
       -0.001612691 0.110871986 0.09450895 0.0281948
0001d0 d8 f7 0f 3d cd 22 21 3d d2 df d7 3c cb 08 d5 bd
       0.03514847 0.03933983 0.026351843 -0.10402068
0001e0 e4 9e c4 bd f2 5b da 3d 41 d5 aa 3d 89 f6 bb bd
       -0.096006185 0.106620684 0.08341456 -0.09177882
0001f0 84 2b ab 3d 94 a8 3d be 67 9e 53 bd 08 87 11 3d
       0.08357909 -0.18521339 -0.051664736 0.035529166
000200 ae 89 8f 3d 4a 06 da 3d 06 7e 00 3d 14 2e 19 3e
       0.07008682 0.10645731 0.031370185 0.14958984
000210 55 10 05 3d 22 bc 06 3d f5 2d df 3d c6 82 f8 bd
       0.03248628 0.03289426 0.108974375 -0.12134318
000220 bb 38 b3 3d 3e 8c fb 3d 32 65 0b 3d c6 1a 0d 3e
       0.08751055 0.122826084 0.034032054 0.13779745
000230 0e 1c ad 3d 03 80 ca bd 70 f3 2f bd 41 43 94 bd
       0.08452617 -0.098876975 -0.04295677 -0.0723939
000240 bd 49 76 3d be 14 d7 bd b4 4e d2 bd 14 ad 04 be
       0.060128916 -0.10502003 -0.10268918 -0.12956649
000250 45 76 1f 3e b7 5c f2 3d 4a ef 31 3d e4 35 11 be
       0.1557246 0.1183409 0.043441094 -0.14180714
000260 c1 81 5d bd 8a 08 24 bc b8 fa cc 3d df 09 99 3d
       -0.05407882 -0.0100118015 0.10008758 0.07472586
000270 e7 be 6e 3d 96 4a e1 bd 2b c8 4d bc 65 24 01 3e
       0.058287527 -0.11000554 -0.012559931 0.1261154
000280 6d f8 34 3c ee ed 40 3d f2 3b ec bd ff bc e0 3d
       0.011045557 0.047101907 -0.11534871 0.10973548
000290 b9 85 a5 bd aa 07 01 3e 47 16 08 3d ef 02 12 bd
       -0.08082146 0.1260058 0.03322437 -0.03564733
0002a0 a9 98 22 be 40 e0 82 bc b6 86 85 3d 15 d7 f0 bd
       -0.15878548 -0.015976071 0.06519835 -0.11759774
0002b0 4a 78 e1 3c 7e 0d 00 3e af 13 4d 3d e2 51 cb bc
       0.027523179 0.12505147 0.0500676 -0.024819318
0002c0 0c 3e 1e be d6 88 35 3d cf 4a e6 3d c9 bb 0d be
       -0.15453357 0.04431995 0.11244737 -0.13841166
0002d0 d3 f4 38 3d 00 2b 56 bc 4f e5 35 bd 8c f5 89 3c
       0.045155358 -0.013071775 -0.04440814 0.016840719
0002e0 d7 60 c1 3c 4d 2a 6f 3d f6 a7 a9 bd a5 8c cf 3d
       0.023605747 0.05838995 -0.08283989 0.10134248
0002f0 85 ea ae bd 17 6a 7a 3d ac af cd 3d 48 87 50 bc
       -0.08540825 0.06113633 0.100432724 -0.012727566
000300 2f 8a 15 3d ec 87 44 bd 2d 33 0e bd 65 a5 3d bd
       0.036508735 -0.047981188 -0.034716774 -0.04630031
000310 c0 c1 0f bd 35 f5 ac bd e8 10 a1 bd a1 08 16 3e
       -0.035096884 -0.08445207 -0.07864553 0.14651729
000320 54 35 92 3d 40 3a 24 3d 4e bf 89 3c b0 fa d9 bd
       0.07139078 0.040094614 0.016814854 -0.10643518
000330 f2 1e 6b bd 5c db 55 3d cd 87 10 be 23 57 00 3e
       -0.05740256 0.05221115 -0.14114304 0.1253324
000340 74 47 98 bd c9 14 13 3e 7c 28 08 be f6 87 f3 bd
       -0.074355036 0.14363398 -0.13296694 -0.11891167
000350 3b ef 0e be fb e5 15 3d 41 0d 09 3e 0b 06 95 3d
       -0.13958447 0.03659628 0.13383962 0.07276543
000360 eb d4 0c be 10 ef d6 bd 77 ad e7 3d 3e 39 3b bd
       -0.13753097 -0.10494816 0.11312383 -0.045708887
000370 ac 9e a8 3a a6 39 c4 bc 87 b2 b7 bd a4 d9 6f bb
       0.0012864671 -0.02395327 -0.08969598 -0.003659823
000380 f2 57 83 bd 85 b1 b9 3d 87 40 9f 3d 0f 45 be bd
       -0.064132586 0.09067062 0.077759795 -0.09290516
000390 30 f2 55 bd bf 64 4b bc 32 94 a8 bd 2d 27 c4 bd
       -0.05223292 -0.012414156 -0.08231391 -0.09577785
0003a0 5d 54 e1 3b f0 4d 9b 3d 13 99 c6 3c b1 f1 38 3d
       0.006876512 0.07583225 0.024242913 0.04515237
0003b0 e8 1d 0e 3e 99 73 3a bd 83 3a d0 3b 46 28 c8 bd
       0.13878596 -0.0455204 0.0063546314 -0.097733065
0003c0 21 c2 b7 bd 73 ee 7a 3d ca 8d 0c 3e 4e 7f 0a 3e
       -0.08972574 0.06126256 0.13725963 0.13525125
0003d0 3d e4 8c 3d da 62 aa bd 06 5f 04 3e b7 f9 99 bc
       0.068794705 -0.08319636 0.12926874 -0.018795831
0003e0 f0 47 4f 3d 28 84 25 3d f5 23 83 bd 2c 5a 00 3e
       0.050605714 0.040409237 -0.06403343 0.12534398
0003f0 21 37 ea bd 13 32 a2 bc 65 a4 9e bd bc 86 06 3e
       -0.11436296 -0.019799268 -0.077461995 0.13137335
